degree.tflite (tflite, 2120 bytes, 5 tensors)

sequential/dense/BiasAdd/ReadVariableOp/resource f4 [8]
0	0xbdad6fae	-0.08468567
1	0xbde9b44d	-0.11411343
2	0x00000000	0.0
3	0x00000000	0.0
4	0x3fb3df79	1.4052573
5	0xbc208191	-0.009796516
6	0x3f8250fb	1.0180963
7	0x00000000	0.0

sequential/dense_1/BiasAdd/ReadVariableOp/resource f4 [8]
0	0xbdfd0c1f	-0.123558275
1	0x3f8c118f	1.0942858
2	0x00000000	0.0
3	0x3f867104	1.050324
4	0x00000000	0.0
5	0x00000000	0.0
6	0x3f929387	1.1451272
7	0xbee06c25	-0.43832508

sequential/dense/MatMul f4 [8, 8]
0	0xbebda567	-0.37040254
1	0xbd3aca81	-0.04560328
2	0x3e26a881	0.16275217
3	0x3e97fbc7	0.29684278
4	0x3ed2e3d1	0.41189435
5	0x3ecd274e	0.4006905
6	0xbee7a3e7	-0.45242235
7	0x3d655713	0.055991244
8	0xbe36589a	-0.17807236
9	0x3ed1d502	0.40982825
10	0x3e769447	0.24080001
11	0x3e2c739b	0.16840975
12	0xbf2c300e	-0.67260826
13	0xbed543a3	-0.41653165
14	0x3dce55c5	0.10074953
15	0xbf192100	-0.5981598
16	0xbeb79dc0	-0.3586254
17	0xbe8627d2	-0.26202255
18	0x3d6906e0	0.056891322
19	0xbddc1860	-0.10746837
20	0xbddb4100	-0.10705757
21	0xbe8f0b51	-0.2793832
22	0x3ee87c1a	0.45407182
23	0xbe8c48d5	-0.27399316
24	0xbf12c42b	-0.5733058
25	0x3ef8374e	0.48479694
26	0xbd8dfed0	-0.06933367
27	0x3de5eda0	0.11226964
28	0xbdfe2088	-0.124085486
29	0x3edd9f42	0.43285567
30	0xbf1a788e	-0.603402
31	0xbe28e828	-0.1649481
32	0x3fb6bd48	1.4276514
33	0x3f84adeb	1.0365576
34	0x3fe62965	1.7981383
35	0x3ff5da98	1.9207335
36	0x3fe19c5f	1.7625846
37	0x3fe8b8f2	1.8181441
38	0x3f87028d	1.0547653
39	0x3ffa88d5	1.9573008
40	0x3e60077f	0.2187786
41	0x3ef022ed	0.46901646
42	0xbdc16c22	-0.09444453
43	0x3eac75cd	0.33683625
44	0x3da3bf32	0.07995452
45	0xbe8a045b	-0.26956448
46	0x3f0a1b2c	0.5394771
47	0xbeff8560	-0.49906445
48	0x3fa18cd7	1.2621106
49	0x3fb142d5	1.384852
50	0x3f7a4431	0.977603
51	0x3f96cd12	1.1781332
52	0x3eeb4ea4	0.45958436
53	0x3fa1c488	1.2638102
54	0x3fc650c0	1.5493393
55	0x3fb3b331	1.403906
56	0x3e146a14	0.1449359
57	0x3c2888c0	0.01028651
58	0xbcc29d60	-0.023756683
59	0x3ef14dae	0.47129577
60	0x3e7b2950	0.24527478
61	0xbe859670	-0.26091337
62	0x3e83fa4a	0.25776893
63	0xbf01c06a	-0.50684226

sequential/dense_1/MatMul f4 [8, 8]
0	0xbe72801d	-0.23681684
1	0xbe2d78f6	-0.16940674
2	0x3f088287	0.5332417
3	0x3ecca32e	0.39968246
4	0xbdf25e27	-0.118343644
5	0x3ec1022f	0.37696978
6	0x3e23f41f	0.16011094
7	0xbed64f3c	-0.41857326
8	0xbe8ba5af	-0.27274844
9	0xbdd1ff1a	-0.10253735
10	0x3e5ec430	0.21754527
11	0x3efc4f7e	0.49279398
12	0x3fe0085a	1.7502549
13	0x3f17535d	0.5911158
14	0x3fbd5d6e	1.4794137
15	0xbf0043c4	-0.501034
16	0xbd9a01d8	-0.07519883
17	0x3e666f54	0.22503406
18	0xbedb8f78	-0.42882895
19	0xbd65f490	-0.056141436
20	0xbe227968	-0.15866625
21	0x3e405ffc	0.18786615
22	0xbf0588f2	-0.52162087
23	0x3ece54c2	0.4029904
24	0xbe2d586c	-0.16928262
25	0x3ebbf015	0.36706606
26	0x3e46a11c	0.19397396
27	0xbeaeefae	-0.34167236
28	0x3ff767a1	1.93285
29	0xbecdc8b4	-0.40192187
30	0x3f8506d4	1.0392709
31	0x3f1c8d39	0.6115299
32	0x3e0f28d8	0.13980424
33	0xbecef281	-0.4041939
34	0x3e7713f4	0.24128705
35	0xbe9fb19a	-0.31190187
36	0xbe8493fa	-0.25894147
37	0x3dbc4a98	0.09193915
38	0xbd9533f8	-0.07285303
39	0x3ec9bb3a	0.39400655
40	0xbd213150	-0.03935367
41	0xbe3135a0	-0.17305613
42	0x3f0e4ac1	0.55582815
43	0x3e82bf92	0.25536782
44	0xbdd40928	-0.10353309
45	0x3cefa780	0.029254675
46	0xbf09faa8	-0.53898096
47	0xbdd4f5c0	-0.103984356
48	0x3eafe4ba	0.34354192
49	0xbe35c10e	-0.17749426
50	0xbec51dc4	-0.38499272
51	0xbe920917	-0.2852256
52	0x3ff209ff	1.89093
53	0x3e805037	0.250612
54	0x3fe3f858	1.7810163
55	0x3d770630	0.060308635
56	0x3e20d029	0.15704407
57	0x3e34def7	0.1766318
58	0x3ed03e42	0.406725
59	0xbe26042e	-0.16212532
60	0xbdb70c64	-0.0893791
61	0x3bf0db8d	0.0073503912
62	0x3df0fed1	0.11767352
63	0xbdf6661c	-0.120311946

sequential/dense_2/MatMul f4 [1, 8]
0	0xbeb2dc20	-0.34933567
1	0x3fff37c7	1.9938897
2	0xbdd8a230	-0.1057781
3	0x40064eae	2.0985522
4	0xbe3bc454	-0.18336612
5	0xbe31ba18	-0.17356145
6	0x3fe5b81c	1.7946811
7	0xbe41f37c	-0.18940538
