model.tflite (tflite, 2172 bytes, 5 tensors)

sequential_12/dense_24/BiasAdd/ReadVariableOp/resource f4 [8]
0	0x00000000	0.0
1	0x00000000	0.0
2	0x3fac6c8a	1.3470623
3	0x3f9cc15c	1.2246509
4	0x00000000	0.0
5	0x00000000	0.0
6	0x3faacc86	1.3343666
7	0x3f912cf0	1.1341839

sequential_12/dense_25/BiasAdd/ReadVariableOp/resource f4 [8]
0	0x3f7dc755	0.9913228
1	0x3f7addd6	0.97994745
2	0x00000000	0.0
3	0x00000000	0.0
4	0x00000000	0.0
5	0xbd60b4e8	-0.054860026
6	0xbdc03592	-0.09385218
7	0xbe154b45	-0.14579494

sequential_12/dense_24/MatMul f4 [8, 8]
0	0xbea2ed6f	-0.31821772
1	0xbef57a06	-0.4794466
2	0x3e4710e8	0.19440043
3	0x3c326140	0.010887444
4	0xbf15ae2a	-0.5846888
5	0xbcf1d2e0	-0.029519498
6	0x3e8a4020	0.27002048
7	0xbc903660	-0.017604053
8	0x3e43e76c	0.19131249
9	0xbf1b059a	-0.6055542
10	0xbe673310	-0.22578073
11	0x3ed128ea	0.40851527
12	0x3f07deb5	0.530742
13	0x3e225924	0.15854317
14	0x3ee1807e	0.44043344
15	0xbeb73e29	-0.35789612
16	0x3ff607a2	1.9221079
17	0x3f68bfc0	0.9091759
18	0x3fb8fc22	1.4451945
19	0x3f9a72fe	1.2066343
20	0x3f9a7214	1.2066064
21	0x3f39fa13	0.7264721
22	0x3f41598f	0.7552728
23	0x3f83a4d2	1.0284674
24	0x3fcb77c5	1.5895926
25	0x3fe08c1f	1.7542762
26	0x3faee930	1.3664913
27	0x3fca67b3	1.5812896
28	0x3fc5b7cb	1.5446714
29	0x3f514f45	0.8176158
30	0x3f7e33c9	0.9929777
31	0x3f87d734	1.061255
32	0xbe9520b7	-0.29126522
33	0xbf17e097	-0.5932707
34	0x3e73b6ec	0.23800248
35	0x3e5256b8	0.20540893
36	0xbee2dad2	-0.44307572
37	0x3e8ad98a	0.27119094
38	0x3e94fd3c	0.29099452
39	0xbebe1978	-0.37128806
40	0xbe94133c	-0.28920925
41	0xbe8d6668	-0.27617192
42	0xbe2666b2	-0.16250113
43	0x3e3f9ba4	0.18711716
44	0x3eedf372	0.46474797
45	0x3d932978	0.07185644
46	0x3dfee1e8	0.12445432
47	0xbd59fbd0	-0.053218663
48	0x3f8711d9	1.0552322
49	0x3fe9af96	1.825671
50	0x3fb653fc	1.424438
51	0x3f63508b	0.88794774
52	0x3fc9ff52	1.5781043
53	0x3fea01e3	1.8281826
54	0x3f829b24	1.0203595
55	0x3f98ba65	1.1931883
56	0x3fd68097	1.6757993
57	0x3f9f784b	1.2458586
58	0x3fc17ea4	1.5116773
59	0x3fa2ae21	1.270939
60	0x3fa0ea57	1.2571515
61	0x3f8a5ca7	1.0809525
62	0x3f6c3094	0.92261624
63	0x3f6eafcb	0.9323699

sequential_12/dense_25/MatMul f4 [8, 8]
0	0x3ec8155a	0.3907879
1	0x3d6c0d60	0.057629943
2	0x3f6b03c7	0.9180264
3	0x3fef3a6d	1.8689705
4	0x3ec22398	0.3791778
5	0xbecd5410	-0.40103197
6	0x3fe51033	1.7895569
7	0x3fafedb1	1.3744413
8	0x3f1c7cf5	0.6112817
9	0x3f15b3c1	0.5847741
10	0x3fe52cc1	1.7904283
11	0x3fc50525	1.5392195
12	0x3f151429	0.58233887
13	0xbe3a3994	-0.18186027
14	0x3fdb1064	1.7114377
15	0x3f895549	1.0729152
16	0xbee2b5a8	-0.44279218
17	0xbea43b55	-0.32076517
18	0xbc39d080	-0.011341214
19	0xbefc896c	-0.49323595
20	0xbe1ead92	-0.154959
21	0xbdb05eb0	-0.0861181
22	0x3eb95c3a	0.36203176
23	0xbd222670	-0.039587438
24	0x3e9cb02c	0.30603158
25	0xbec1a7be	-0.3782329
26	0xbeb27bc5	-0.34860054
27	0xbf0f0cfc	-0.5587919
28	0x3f0da4f5	0.5532983
29	0x3f08ef73	0.5349037
30	0xbf0e289e	-0.55530727
31	0x3e300860	0.17190695
32	0x3efcb7ee	0.49359077
33	0x3db43418	0.087989986
34	0xbe46c814	-0.19412261
35	0xbeea1088	-0.45715737
36	0x3e6244e4	0.22096592
37	0xbea872cf	-0.32900092
38	0x3eabf15e	0.33582586
39	0xbf1cab0f	-0.61198515
40	0x3c0f7a00	0.008757114
41	0xbe2476b6	-0.1606091
42	0xbd7a6ccb	-0.06113891
43	0xbefa0c17	-0.4883735
44	0xbe4a5f8e	-0.19763014
45	0x3e4dac34	0.20085222
46	0x3f00a693	0.5025417
47	0x3d576518	0.052586645
48	0xbeeeda4a	-0.46650916
49	0xbeaf0315	-0.3418204
50	0xbf019c0d	-0.5062874
51	0x3ded26f3	0.115796946
52	0xbf171a20	-0.5902424
53	0xbf0fc31e	-0.561571
54	0x3e9dd3b0	0.30825567
55	0xbedbf4b7	-0.4296014
56	0x3ea1747c	0.31534183
57	0x3e34ebf4	0.17668134
58	0xbd8e0f8b	-0.06936558
59	0x3cd41dee	0.025893178
60	0x3ed491f6	0.4151761
61	0x3f1422ad	0.5786541
62	0x3e3561b4	0.17713052
63	0xbefb5fd7	-0.49096557

sequential_12/dense_26/MatMul f4 [1, 8]
0	0x3fed3baa	1.8533833
1	0x3ff69100	1.9263
2	0x3f110ef8	0.56663465
3	0x3dfa2258	0.12213582
4	0xbf0277b3	-0.50963897
5	0xbf28fa4a	-0.6600691
6	0xbf0cd299	-0.55008847
7	0xbe947e02	-0.29002386
