tf_lite_model.tflite (tflite, 2224 bytes, 5 tensors)

sequential/dense/BiasAdd/ReadVariableOp/resource f4 [8]
0.7504236 0.0 0.0 1.327835 -0.23547137 -0.0116757415 1.2037313 0.0
00000000: c31b 403f 0000 0000 0000 0000 7ff6 a93f
00000010: 681f 71be 9c4b 3fbc de13 9a3f 0000 0000

sequential/dense_1/BiasAdd/ReadVariableOp/resource f4 [8]
1.1571783 0.0 0.0 0.7851959 0.0 0.0 0.99884737 0.9141303
00000000: 6b1e 943f 0000 0000 0000 0000 9902 493f
00000010: 0000 0000 0000 0000 76b4 7f3f 7104 6a3f

sequential/dense/MatMul f4 [8, 8]
0.8858009 0.76766413 1.2379309 0.85880405 1.3800359 0.57911366 1.3808097 0.55024946
0.6005867 0.046983838 -0.54769504 0.54408723 0.09345335 -0.5474962 0.36469567 -0.5308448
-0.09903306 -0.4220751 -0.12640837 0.45335525 -0.599233 0.37942117 0.10231209 -0.033516407
1.4683479 1.44569 1.4793333 0.9616543 1.32291 1.1964221 1.8673193 0.87719196
0.21181265 -0.29660422 -0.58952826 -0.6979852 -0.07084605 -0.283249 -0.43911445 0.079825126
-0.4203959 0.29841867 0.07118593 0.3955147 -0.17959873 -0.19949137 -0.30982265 -0.060178317
1.4990089 1.6400853 1.7080152 1.0227108 1.3708464 0.9197627 1.0282 1.5562092
-0.2012546 -0.21674398 -0.5297474 0.57876307 0.6062148 -0.3196633 -0.45881814 0.22459066
00000000: d9c3 623f a385 443f 8574 9e3f 95da 5b3f
00000010: 04a5 b03f cb40 143f 5fbe b03f 26dd 0c3f
00000020: 0dc0 193f 2072 403d be35 0cbf 4d49 0b3f
00000030: 7864 bf3d b628 0cbf 64b9 ba3e 72e5 07bf
00000040: d8d1 cabd 3a1a d8be 3271 01be 2e1e e83e
00000050: 5567 19bf 7e43 c23e 0089 d13d 8048 09bd
00000060: d3f2 bb3f 5f0c b93f cb5a bd3f fa2e 763f
00000070: 1d55 a93f 5c24 993f 5204 ef3f a78f 603f
00000080: 6ae5 583e 82dc 97be 53eb 16bf 28af 32bf
00000090: bc17 91bd 0306 91be 9cd3 e0be 5b7b a33d
000000a0: 223e d7be 55ca 983e eec9 913d e780 ca3e
000000b0: bbe8 37be 7747 4cbe 13a1 9ebe 8a7d 76bd
000000c0: 86df bf3f 51ee d13f 3ea0 da3f 30e8 823f
000000d0: e577 af3f 9175 6b3f 0f9c 833f dd31 c73f
000000e0: b015 4ebe 22f2 5dbe 879d 07bf d129 143f
000000f0: e530 1b3f e8aa a3be 36ea eabe 18fb 653e

sequential/dense_1/MatMul f4 [8, 8]
1.140097 0.5902024 0.018890321 1.8410156 0.49045953 -0.25378382 1.8128111 -0.17152953
-0.58850044 0.14532483 0.24574769 -0.23640522 0.4341032 -0.04497397 -0.42583928 -0.09688753
-0.16450441 0.4057694 -0.49533108 -0.1261501 0.2717728 -0.19857475 -0.3566021 0.17657024
1.6530083 -0.5877579 0.5255417 1.271931 0.059901766 0.21411395 0.52799135 0.40163642
0.3850875 0.56168777 0.44515556 -0.23872882 -0.56404674 -0.19868776 -0.59328824 -0.16889465
-0.1335611 -0.4294576 0.40239352 -0.11988461 0.38594174 0.2437793 -0.59445393 0.5616047
0.86003554 -0.18765372 0.39768142 1.1673474 -0.37321573 -0.29674712 1.3974099 0.26073045
0.85489905 -0.25233904 0.29219013 1.9893314 -0.064126104 -0.15015762 1.6772139 0.6102379
00000000: b3ee 913f 8117 173f e0bf 9a3c 66a6 eb3f
00000010: 831d fb3e f4ef 81be 320a e83f 70a5 2fbe
00000020: f7a7 16bf 08d0 143e 48a5 7b3e 3614 72be
00000030: c642 de3e a036 38bd 9b07 dabe f86c c6bd
00000040: d873 28be 02c1 cf3e 099c fdbe 7e2d 01be
00000050: ce25 8b3e 2e57 4bbe 8d94 b6be d4ce 343e
00000060: c795 d33f 4d77 16bf e789 063f a3ce a23f
00000070: 8e5b 753d b040 5b3e 712a 073f 4aa3 cd3e
00000080: 302a c53e c5ca 0f3f 6eeb e33e 5475 74be
00000090: 5e65 10bf ce74 4bbe bde1 17bf b8f2 2cbe
000000a0: 3ec4 08be dee1 dbbe 8606 ce3e 1086 f5bd
000000b0: 289a c53e 48a1 793e 222e 18bf 53c5 0f3f
000000c0: 4a2b 5c3f 4c28 40be e69c cb3e a46b 953f
000000d0: 2216 bfbe 3def 97be 54de b23f 767e 853e
000000e0: aada 5a3f 9532 81be f299 953e 69a2 fe3f
000000f0: 8c54 83bd ebc2 19be f2ae d63f 8d38 1c3f

sequential/dense_2/MatMul f4 [1, 8]
1.2729342 0.5876627 0.5403992 1.4233171 0.39448667 0.2626921 1.714799 1.6892962
00000000: 82ef a23f 1071 163f 9a57 0a3f 412f b63f
00000010: 28fa c93e 947f 863e 897e db3f dc3a d83f
