HousePrices/app/src/main/assets/model.tflite (tflite, 2120 bytes, 5 tensors)

sequential/dense/BiasAdd/ReadVariableOp/resource f4 [8]
00000000: 8976 933d 462a 9c3d 0000 0000 2c5c 87bd
00000010: 0000 0000 0000 0000 9594 993d 5dd3 913d
0.07200343 0.076252505 0.0 -0.06609377 0.0 0.0 0.07499043 0.071203925

sequential/dense_1/BiasAdd/ReadVariableOp/resource f4 [8]
00000000: 0000 0000 0000 0000 ecc0 8cbd 0000 0000
00000010: 0000 0000 0000 0000 0000 0000 0000 0000
0.0 0.0 -0.068727344 0.0 0.0 0.0 0.0 0.0

sequential/dense/MatMul f4 [8, 8]
00000000: 65f6 a63e 7042 a1bd 89a1 4a3e 0e20 07be
00000010: 02ea 01bf 573c cbbd eecd 353e 3629 9c3e
00000020: 6a2c 9b3e 1d6c febe 24d1 97be 89d3 ecbe
00000030: 585e 593e 9d2d 5abe 914e a43e 360e f23e
00000040: 56f1 d23e bb2e a5be 87c2 fcbe 28d1 993e
00000050: 52ec c2be 00c6 da3c 1604 97be 81b8 0fbf
00000060: 4471 f93e 63f0 a63e be64 873e d333 cd3e
00000070: 04ac c8be 724e be3e 0ddf 91be 42e3 053f
00000080: e0ab 2fbd e34f 123f 3f5f 85be 3e71 ef3e
00000090: e2b9 3bbe 20da d93d 5a50 10be 9c04 04be
000000a0: 88e4 88bd 2807 573e 1966 e5be c092 eb3c
000000b0: 0f38 053f 9ad8 99be d032 53bd f870 933d
000000c0: 0a35 a93e c1c4 283f ab30 d6be 9010 033f
000000d0: 7e41 e03e fb7e 853d a6a4 2d3f 24b3 023f
000000e0: 7ad6 2d3f 44d1 98be 5b9e a73c 9acd 1c3f
000000f0: d8fd a3be 0308 9cbe be24 f6be b943 29be
0.3260986 -0.07874 0.19788183 -0.13195822 -0.5074769 -0.09923618 0.17754337 0.3050019
0.30307323 -0.4969186 -0.2965175 -0.4625514 0.21227396 -0.21306463 0.3209119 0.47276467
0.4119975 -0.32262215 -0.49367163 0.30042386 -0.38070923 0.026705742 -0.29495305 -0.56140906
0.48719227 0.32605276 0.26444048 0.400786 -0.39193738 0.37169224 -0.28490487 0.5229989
-0.042888522 0.5715315 -0.2604923 0.46766084 -0.18332627 0.10637307 -0.14093152 -0.12892383
-0.06684214 0.20998824 -0.44804457 0.0287565 0.52038664 -0.30048066 -0.05156213 0.071992815
0.33048278 0.6592522 -0.41834006 0.5119715 0.43799967 0.0651836 0.6782936 0.51054597
0.6790539 -0.29847157 0.020461252 0.61251223 -0.32029605 -0.30474862 -0.48074907 -0.1652974

sequential/dense_1/MatMul f4 [8, 8]
00000000: e012 16bd 90aa 64be 2875 be3d b26c 90be
00000010: 8096 1dbc 50dd e6be 48ae b33e 5c5c b53e
00000020: 5871 ecbe 5e24 bfbe 2261 ed3e 7868 e5be
00000030: a8a1 75be 5445 7bbe 8881 9c3d 05aa 003f
00000040: 4544 d8be f19c 3dbd b810 4f3e 183a c23e
00000050: 6a3e 3fbe f0ec 9c3d 02ba 73be 805a 22bf
00000060: 781a cabe 7d57 b4be 12d8 c83e 3004 d7be
00000070: 7d60 103f ec4f 2ebe 8c84 edbe 6011 8a3e
00000080: 4cb2 18bf 7cf3 3bbe 30d9 7d3e f07d 56bd
00000090: 29b1 17bf 3ed8 cf3e 2f0e cabe 7c6a debe
000000a0: 00b8 d03c 5838 763e e012 4b3d 566c 85be
000000b0: d0c7 2d3d 4e4f a73e e0b1 ac3c 1845 c1be
000000c0: 382d bb3d febb 1dbe 0228 e83e aee4 b8be
000000d0: 0a70 e0be 9176 0abf 21ec 15bf 00b4 283a
000000e0: fe2b f2be a99c edbe 352f 073f 346c 16be
000000f0: 3879 e4bd b46e 64be b5a9 b7be 5e61 2dbe
-0.036639094 -0.2233069 0.092996895 -0.28207928 -0.0096184015 -0.45090723 0.35093904 0.35422027
-0.46180224 -0.37332433 0.4636317 -0.44806266 -0.23987448 -0.24538165 0.076418936 0.5025943
-0.42239586 -0.04629225 0.20221221 0.37934947 -0.18676153 0.0766238 -0.23801425 -0.6341934
-0.3947332 -0.35222998 0.3922735 -0.41995382 0.5639723 -0.17022675 -0.46390188 0.2696638
-0.5964706 -0.183546 0.24789882 -0.052366197 -0.592547 0.40594667 -0.39463946 -0.43440616
0.025478363 0.24044931 0.049578547 -0.26059216 0.042426884 0.32677692 0.021080911 -0.37748027
0.09139484 -0.15403745 0.45343024 -0.3611197 -0.4383548 -0.5408717 -0.5856343 0.00064355135
-0.47299188 -0.46408585 0.5280641 -0.14689714 -0.11155933 -0.22307855 -0.35871664 -0.16931674

sequential/dense_2/MatMul f4 [1, 8]
00000000: 4ebc 373f 4386 17bf 9d75 acbe 70c1 633d
00000010: 0c15 37be f840 583e 4e91 413f 94e9 71be
0.71771705 -0.5918924 -0.33683482 0.0556044 -0.17879122 0.21118534 0.7561234 -0.23624259
